        Layer (type)               Output Shape         Param #
================================================================
            Conv2d-1           [-1, 64, 32, 32]           1,792
              ReLU-2           [-1, 64, 32, 32]               0
            Conv2d-3           [-1, 64, 32, 32]          36,928
              ReLU-4           [-1, 64, 32, 32]               0
         MaxPool2d-5           [-1, 64, 16, 16]               0

            Conv2d-6          [-1, 128, 16, 16]          73,856
              ReLU-7          [-1, 128, 16, 16]               0
            Conv2d-8          [-1, 128, 16, 16]         147,584
              ReLU-9          [-1, 128, 16, 16]               0

        MaxPool2d-10            [-1, 128, 8, 8]               0
           Conv2d-11            [-1, 256, 8, 8]         295,168
             ReLU-12            [-1, 256, 8, 8]               0
           Conv2d-13            [-1, 256, 8, 8]         590,080
             ReLU-14            [-1, 256, 8, 8]               0
           Conv2d-15            [-1, 256, 8, 8]         590,080
             ReLU-16            [-1, 256, 8, 8]               0
        MaxPool2d-17            [-1, 256, 4, 4]               0

           Conv2d-18            [-1, 512, 4, 4]       1,180,160
             ReLU-19            [-1, 512, 4, 4]               0
           Conv2d-20            [-1, 512, 4, 4]       2,359,808
             ReLU-21            [-1, 512, 4, 4]               0
           Conv2d-22            [-1, 512, 4, 4]       2,359,808
             ReLU-23            [-1, 512, 4, 4]               0
        MaxPool2d-24            [-1, 512, 2, 2]               0

           Conv2d-25            [-1, 512, 2, 2]       2,359,808
             ReLU-26            [-1, 512, 2, 2]               0
           Conv2d-27            [-1, 512, 2, 2]       2,359,808
             ReLU-28            [-1, 512, 2, 2]               0

           Conv2d-29            [-1, 100, 1, 1]         204,900
